weights/resnet50d_lin1.pth (torch, 17986 bytes, 2 tensors)

fc1.weight f4 [2, 2048]
-0.011197674 -0.002476378 0.013304563 -0.000637006 -0.04713674 0.009122783 -0.063576385 -0.04739743
-0.08008303 0.024888983 -0.0040353257 0.020270607 -0.034641266 -0.011411047 0.003460292 -0.07277273
0.05654756 -0.04166415 0.049828168 -0.071416415 -0.008696396 -0.054127574 -0.12499442 0.073847204
0.0634542 0.01576239 -0.010417573 0.01190217 -0.07407863 -0.04501892 -0.028119637 -0.09132757
-0.042293277 -0.029815922 -0.015482829 0.002405143 -0.063065335 0.012685051 -0.07311292 0.0052709766
0.09780904 0.004332519 -0.050892375 -0.026146919 -0.028955434 -0.078217 -0.040432315 0.00032125058
-0.104682654 0.022942029 0.09187886 -0.012036576 -0.020994589 -0.065339215 -0.058947768 -0.014079019
-0.038965877 -0.042357754 -0.066026665 0.0056995 0.12642494 0.04641975 -0.035027813 0.06485919
0.006135121 0.08889216 -0.027718358 -0.0120400395 0.005228517 -0.031591613 0.042989034 -0.005587788
0.059773825 -0.015307143 0.010114551 -0.07040232 -0.026913233 0.026929447 0.024780491 -0.009712913
-0.08248623 -0.053730622 -0.044909388 0.017108263 -0.030889684 0.052366894 0.09522122 -0.057106387
0.026919924 -0.09473764 0.010734605 -0.02446524 -0.07299868 0.069359474 -0.01738795 -0.010618525
-0.012080581 0.016434228 -0.044403046 -0.049131345 0.014056183 0.030279381 0.08526316 -0.032351162
-0.0223592 -0.020530643 -0.06869365 -0.03222225 0.02885615 0.014831436 0.080665134 -0.04173185
0.0986865 -0.020052508 0.06453748 0.05637501 -0.031062424 0.059531882 -0.0035347454 0.05905648
0.0058880146 0.04060874 -0.004186592 -0.0231359 -0.00048701372 -0.05756847 -0.07595784 -0.02075015
-0.029206049 0.06586615 -0.04624293 0.038382217 -0.008015169 -0.062745705 0.05807016 -0.0643574
0.010370043 0.0065600765 -0.03707504 0.020828307 -0.035955556 -0.017242914 -0.004783348 -0.11075718
-0.000891799 0.020405015 0.03009457 -0.07799553 -0.06015467 0.0030602938 -0.058984537 -0.0031711953
-0.08729321 0.08265917 -0.14883478 -0.031386383 0.017790217 -0.06824416 -0.010480366 0.024066828
-0.016291307 -0.0007220159 0.061579622 -0.042744678 -0.006610091 -0.040507525 0.05473985 0.061326213
0.0071553513 0.04184796 -0.029642291 -0.008331028 -0.07022627 -0.1327338 -0.08253993 -0.016021753
0.002549956 -0.042519253 -0.019402696 -0.04479208 0.0021912423 0.080626465 -0.01702043 -0.11442947
0.038401984 -0.05438503 -0.15409888 0.120237984 0.02921921 -0.10452836 -0.048253693 -0.04865332
0.028472928 -0.0008470969 -0.009877371 0.010079451 -0.09176461 -0.04565788 0.03689559 -0.042689707
-0.009225821 0.02812686 -0.17247307 0.038800787 -0.00865355 -0.047318798 0.020638352 0.0051834127
0.011136576 -0.04969959 -0.032844994 0.039600402 0.044780873 -0.05963187 0.001309979 -0.012440599
0.01574922 -0.00073690497 -0.027510988 -0.025466805 -0.010727261 0.064816356 0.094486564 -0.026051592
0.039888136 -0.033597145 -0.012306167 -0.1268392 0.03303401 -0.015197885 0.061609764 -0.047754023
0.050404444 -0.06491701 -0.036426887 -0.031213444 -0.09557438 0.06399637 0.010492353 0.00770954
-0.011400676 -0.04693067 -0.07095746 0.06919098 0.018836116 -0.0018267978 0.06422205 0.063989714
-0.033873424 0.109906845 -0.07352593 0.015530089 -0.049182616 -0.026212674 0.027200382 -0.008251046
00000000: 7376 37bc bb4a 22bb 62fb 593c c0fc 26ba
00000010: 7412 41bd ba77 153c 5634 82bd cf23 42bd
00000020: 9202 a4bd fbe3 cb3c c43a 84bb 8b0e a63c
00000030: 00e4 0dbd 66f5 3abc 11c6 623b de09 95bd
00000040: 6a9e 673d 07a8 2abd 9f18 4c3d c542 92bd
00000050: 547b 0ebc e0b4 5dbd 13fd ffbd 343d 973d
00000060: 47f4 813d 2120 813c 78ae 2abc 5201 433c
00000070: 89b6 97bd c265 38bd 275b e6bc f309 bbbd
00000080: b73b 2dbd 8540 f4bc b1ab 7dbc 9b9f 1d3b
00000090: 6628 81bd f6d4 4f3c 3abc 95bd 28b8 ac3b
000000a0: 1b50 c83d cef7 8d3b 8674 50bd 1032 d6bc
000000b0: f233 edbc 3c30 a0bd 5b9c 25bd 866d a839
000000c0: dc63 d6bd ecf0 bb3c fc2a bc3d 0f35 45bc
000000d0: d8fc abbc 91d0 85bd 3773 71bd b0ab 66bc
000000e0: af9a 1fbd 537f 2dbd fd38 87bd dfc2 ba3b
000000f0: 8a75 013e a322 3e3d 5379 0fbd e5d4 843d
00000100: 2009 c93b 180d b63d 9c11 e3bc 9643 45bc
00000110: fb53 ab3b 3566 01bd 4515 303d c319 b7bb
00000120: 66d5 743d d0ca 7abc 80b7 253c 172f 90bd
00000130: 2479 dcbc 259b dc3c 7500 cb3c e922 1fbc
00000140: 8aee a8bd a414 5cbd e8f2 37bd a126 8c3c
00000150: 5d0c fdbc ab7e 563d 5803 c33d 63e8 69bd
00000160: 2c87 dc3c cf05 c2bd 32e0 2f3c 546b c8bc
00000170: 5580 95bd 570c 8e3d 2d71 8ebc 52f9 2dbc
00000180: a1ed 45bc 13a1 863c f8df 35bd f33d 49bd
00000190: e84b 663c 770c f83c 749e ae3d a782 04bd
000001a0: a42a b7bc e12f a8bc 42af 8cbd 7afb 03bd
000001b0: bc63 ec3c 8dff 723c c333 a53d 04ef 2abd
000001c0: 261c ca3d 2845 a4bc 3a2c 843d 7ce9 663d
000001d0: a076 febc b4d7 733d 30a7 67bb 35e5 713d
000001e0: 3ff0 c03b 5a55 263d ae2f 89bb 8087 bdbc
000001f0: e055 ffb9 eacc 6bbd c98f 9bbd 38fc a9bc
00000200: 8641 efbc d5e4 863d 3a69 3dbd ac36 1d3d
00000210: 0e52 03bc d280 80bd fada 6d3d d0cd 83bd
00000220: 1de7 293c e9f5 d63b ffdb 17bd 20a0 aa3c
00000230: 2246 13bd 0341 8dbc a2bd 9cbb a9d4 e2bd
00000240: 9ec7 69ba 6b28 a73c e388 f63c 1fbc 9fbd
00000250: be64 76bd 368f 483b c599 71bd d4d3 4fbb
00000260: c8c6 b2bd 3649 a93d 2568 18be 028f 00bd
00000270: cabc 913c 98c3 8bbd d7b5 2bbc cc27 c53c
00000280: 5975 85bc ab45 3dba ea3a 7c3d 0b15 2fbd
00000290: 7699 d8bb 38eb 25bd e536 603d 3231 7b3d
000002a0: 7077 ea3b c468 2b3d 64d4 f2bc dd7e 08bc
000002b0: cad2 8fbd 5feb 07be b20a a9bd 0d40 83bc
000002c0: 2a1d 273b ab28 2ebd 67f2 9ebc e677 37bd
000002d0: f29a 0f3b 7d1f a53d 6e6e 8bbc ff59 eabd
000002e0: 664b 1d3d d6c2 5ebd 19cc 1dbe 553f f63d
000002f0: 205d ef3c f712 d6bd aaa5 45bd b448 47bd
00000300: 0f40 e93c b60f 5eba b2d4 21bc 4824 253c
00000310: 15ef bbbd c203 3bbd d51f 173d 67db 2ebd
00000320: e627 17bc 4d6a e63c c89c 30be 93ed 1e3d
00000330: 9fc7 0dbc 5bd1 41bd c311 a93c 9ed9 a93b
00000340: 2f76 363c cc91 4bbd 7988 06bd 0834 223d
00000350: 266c 373d 8c40 74bd 9ab3 ab3a a7d3 4bbc
00000360: 8204 813c db2c 41ba b95e e1bc c39f d0bc
00000370: 65c1 2fbc 70be 843d 2c82 c13d 266a d5bc
00000380: be61 233d 299d 09bd ce9f 49bc 23e2 01be
00000390: ac4e 073d 8d00 79bc 855a 7c3d b999 43bd
000003a0: e474 4e3d 36f3 84bd 5c34 15bd 56b3 ffbc
000003b0: 80bc c3bd 8710 833d 1ee8 2b3c 4fa0 fc3b
000003c0: e7c9 3abc 603a 40bd 2552 91bd 00b4 8d3d
000003d0: 334e 9a3c 2a71 efba da86 833d 0a0d 833d
000003e0: dcbe 0abd d716 e13d c394 96bd ea71 7e3c
000003f0: b673 49bd f6bb d6bc 56d3 de3c 652f 07bc

fc1.bias f4 [2]
-0.01805796 0.009625874
00000000: 49ee 93bc d8b5 1d3c
